checkpoints/NoteRecog_removed_encoder_decoder(epoch=0008).ckpt (torch, 368188 bytes, 126 tensors)

weight f4 [4, 1, 7, 5]
00000000: f485 8d3c 4f2b 0abe 7d6a f3bd f931 0d3c
00000010: 00e2 ee3d c536 6e3d 537f 463d 8cbf c9bd
00000020: 84c1 87bd c48f a63d 665a 07bd 15d3 8d3c
00000030: 1490 debc 0579 d9bd 438d dc3d 4aaf 75bd
00000040: 1d52 afbe d78b c9be 7e09 07bf ed6c e8be
00000050: 6f14 2e3e a874 f43d 1d78 b23d 4391 6f3c
00000060: bbcc 1bbe ab9c 923d c1fc a73d ca0e f93c
00000070: f932 e53d 2f7b e13c dc99 0bbe c007 573d
00000080: 0282 d73b 1da4 30bd e41d a0bd 8ab9 833c
00000090: 317d be3d 3e42 963d 3ed9 073b 2d71 293c
000000a0: 921c b33d 2b7c b93d 8bc8 c13d 6c6f 1e3e
000000b0: 092c 683d 9dcf 7abc 2cd7 b03d 2ecc d23d
000000c0: f418 703c 6823 9bbd 0098 43be 636c 54bd
000000d0: 3322 8ebe cc11 6bbe c46f 93be 992f 13be
000000e0: 58e7 89bc 8e31 afbe 855d 75be 2335 54be
000000f0: 92ed 9cbb 2caa 9f3d 6e13 9d3c 4f4d 7bbd
00000100: fe51 44bd 1f22 033e b1ca 0b3e 2a17 003e
00000110: 5d29 bd3d b098 843c e108 33bd 5525 80bc
00000120: 399c 9b3b 94d5 983d bf69 893d f7bf 6abe
00000130: 37cf e9bd f306 26be f681 6a3d d4c8 06bd
00000140: 102d 1ebe fecf b6bd d242 3bbd ed3a 993d
00000150: 7b2e 023e ea53 093d 105a bc3d 5b7a cd3d
00000160: cfd1 ac3d 5e2b 8f3e 33d1 13bd 6a4f 19bd
00000170: 8bd3 aabd 50ab b93d 1b92 573e bb1c 17be
00000180: def7 31be 223b 6cbe 650a 823d 8023 46bc
00000190: 204f aabd 62e4 9ebd 107f 98bc ea86 203d
000001a0: f75c 843d 281e 8c3a 7b99 843a 9762 8c3c
000001b0: d58d 0dbd 1839 8b3d ab4b b4bc 1d31 f6bb
000001c0: b112 b1bb 1476 953c a668 6f3c 11bd fa3c
000001d0: 12cf a43c 831f 073e f0cf 093e 2fd3 143e
000001e0: 3c10 13bd 9e33 abbc 831d a93d e3b8 013e
000001f0: 9969 17be a093 1d3d 819d 003e 24c8 ae3e
00000200: 4ab3 583e ef6b 843c b1fb 213e 7806 833e
00000210: 79dd a93e 4a14 a23e 8a61 2b3e 108d c4bd
00000220: cdeb 053e 0004 763e c851 183e b64e 9dbe
0.017275788 -0.13493083 -0.118855454 0.008617871 0.116642 0.0581577 0.04846127 -0.09850988
-0.06628707 0.0813289 -0.033045195 0.017312566 -0.027168311 -0.10618786 0.10769131 -0.05998162
-0.34242335 -0.39364502 -0.5274886 -0.45395604 0.16999982 0.11936313 0.08714316 0.014622035
-0.15214817 0.07158788 0.08202506 0.03040256 0.11191363 0.027524559 -0.13632911 0.052497625
0.0065767774 -0.04312526 -0.07818201 0.016079683 0.09301222 0.073368534 0.0020728852 0.010341925
0.08745684 0.09056886 0.09462079 0.15472192 0.05668262 -0.015308288 0.08634791 0.102928504
0.014654387 -0.075751126 -0.19100952 -0.051861178 -0.27760467 -0.22956008 -0.28796208 -0.14373626
-0.016833946 -0.34217495 -0.23961456 -0.20723395 -0.004789063 0.077961296 0.019174304 -0.061353024
-0.047929756 0.12805985 0.1365154 0.12508836 0.09236405 0.016186088 -0.04370964 -0.015642801
0.004748848 0.07462612 0.067096226 -0.22924791 -0.11416476 -0.16213588 0.057252847 -0.03290637
-0.15446877 -0.0892639 -0.04571802 0.07481942 0.12713043 0.033527292 0.091968656 0.10033103
0.08438455 0.27962774 -0.03608818 -0.03742925 -0.0834113 0.090658784 0.21051829 -0.14757054
-0.1737971 -0.23069432 0.06349639 -0.012093425 -0.08315873 -0.07758404 -0.018615276 0.039191164
0.06463044 0.001069014 0.0010116542 0.017136855 -0.03455909 0.06797999 -0.022008738 -0.007513179
-0.0054038395 0.01824478 0.0146123525 0.030607732 0.02011827 0.13195615 0.13458228 0.14533685
-0.035904154 -0.020898636 0.08257582 0.12668185 -0.14786376 0.038470864 0.12560083 0.3413707
0.21162143 0.016164748 0.15818669 0.25590873 0.33176783 0.31656104 0.16736427 -0.09597218
0.13078232 0.24024963 0.14874947 -0.30724114

weight f4 [4]
00000000: 23ae 703f 08a9 933e d139 b73e bf40 e63e
0.9401571 0.28839898 0.35786298 0.44971272

bias f4 [4]
00000000: 8f99 45bd 91ae 51be 6f00 743e f37a aebe
-0.048242148 -0.20476748 0.2382829 -0.34078178

running_mean f4 [4]
00000000: ac39 3cbd 638c a7bc 0ea9 1abc a53b 9e3d
-0.045953438 -0.020452684 -0.00943972 0.0772622

running_var f4 [4]
00000000: 116a 3f3d c02f 1b3d 2bec a13c 6e2a bd3d
0.046732012 0.037887335 0.019765934 0.092366084

weight f4 [2, 4, 1, 1]
00000000: a4eb bd3c 70da 1cbf 0391 71be 667e debe
00000010: 075c bf3e 2f25 1d3e 3ab5 e8bd 1e39 82be
0.023183651 -0.6127081 -0.23590474 -0.4345581 0.373749 0.15346216 -0.11362691 -0.25434202

weight f4 [2]
00000000: dee0 d33f 3833 3a3f
1.6552999 0.72734404

bias f4 [2]
00000000: fe15 483f 7235 06bf
0.7815856 -0.524253

running_mean f4 [2]
00000000: 1279 573e 350c 843d
0.21042278 0.06447641

running_var f4 [2]
00000000: 3b1a 1a3c 5350 eb3c
0.009405668 0.028724825

weight f4 [8, 4, 5, 5]
00000000: 1624 ebbc e541 473d 1293 1dbd 2bb6 503d
00000010: b303 4abd b67e 013d 1e7f 1a3e 7d0d 43bd
00000020: 7f25 59bd c8c3 a4bc cf3a 973d e51e 123e
00000030: ac1d 9e3b 0143 55bd 65ab 65bd a440 1a3e
00000040: 9098 b6bd da1c 50bd 5225 38bd 7bc8 77bd
00000050: 2a15 563d e8fa bbbd 4007 34bd 0fad 65bd
00000060: c1ba 5ebc 62e6 cc3d 9ed0 04be e47c 16bd
00000070: ec5d f73c 9897 fb3c 570a f83d b994 91be
00000080: 615f 2c3d 9403 173e c91f 94bc 921b 6b3e
00000090: 60b7 91be 18c4 6fbb 012e 9a3d 0782 05bb
000000a0: bded 3e3e e934 77be 24b9 debb 574e 9f3c
000000b0: d691 373d 67bd 1f3e 7ac8 d3bd a89b 89bd
000000c0: 70fb a23d f7c9 683c c241 0ebd 40ce 573d
000000d0: b27d bd3c 6080 e6bc da1c 82bd 8d8b 1dbb
000000e0: 2b68 e4bc 9305 c53c 2caa a1bd 6f0d 4dbd
000000f0: 37a6 41bd ca11 14be b793 ab3c 78ae 193d
00000100: 97be f83d 66b4 90bd c72d be3d 80f4 cdbc
00000110: 77d4 bdbc 5226 d13d 4fb7 4cbd 875f d83d
00000120: 5277 2bbc 6391 fc3c ab50 ae3d 2bb3 5cbd
00000130: f53b 163d 83ff 26bd 7d7e 36bd 712c 62bd
00000140: f5b3 bdbd c1ac 18be 05c2 b1bc 9b43 bfbd
00000150: 5bc3 09be 4a8a 0cbe 9cb1 5ebe 728f 15bd
00000160: ed5d b4bd f236 30bc 3f06 0c3d d01c 28be
00000170: 86e5 a23d 3aba dcbb 1b37 8d3d 2a16 d23d
00000180: 53c3 dc3b 0ed7 233d 013d 3d3d 2bed c53c
00000190: a22a 713d ba65 413c 25c1 51bd 867d 5bbd
000001a0: ca59 9fbd 1228 bcbc 3fb5 06be df81 72bd
000001b0: 75de 523d 78e3 b03d c9aa b3bd edfb 3bbd
000001c0: 57c7 0cbd 58e3 963d 97a3 a33d 5dc1 75bd
000001d0: 36b3 dabd 7283 fb3c ff4e 6e3d a4ea 573d
000001e0: de9f 313d 2434 c8bd 2cb4 5dbc 67fd ad3d
000001f0: a89a 56bc d5db abbd df5e 61bd 66a4 0ebd
00000200: 840d 2dbd c357 0f3e 6ebf 883d ef28 3b3d
00000210: b035 e5bc 2950 bebd 8e69 7e3d 335a f4ba
00000220: a9fd bcbc 1d59 c4bd 79ab 38bd f74a a23c
00000230: f10c 5abc a031 12be a5f3 ebbc ab49 043e
00000240: df4b 4e3e e393 d73d 14e6 0abe 5781 cebb
00000250: 049b 8c3d 141e aabb b7a8 e63c c7bc 08bd
00000260: 3581 ecba 8e43 74bd 2e29 7ebd fa9d 1d3d
00000270: 9c1b fa3d 3043 febd f708 26be 71b4 c3bc
00000280: ef6b bc3d b658 2dbe 6363 20be 341f 723d
00000290: 72d8 e13c c49d b93c 217d 993d 8620 2f3b
000002a0: b483 7b3d 1b3c 1a3d 2616 10bd a8e8 963c
000002b0: d68a 763d 2684 acbc c9f3 6ebd ffc6 ee3c
000002c0: 8ed2 133e 25cc b43c 1fcc 90bd b53c b8bd
000002d0: 2d08 0e3e 778f 1b3e a1a1 4ebe 9c19 98be
000002e0: a6e9 553b 9727 3d3d e4a3 c3bd 985f 72bd
000002f0: 66e5 ccbd 295a fb3c 19de bbbd f509 dabd
00000300: 50b2 a53c 968c e33d 7dab 94bc 2c38 acbd
00000310: befe d3bd 68ff 3fbd ff00 eb3d a67e 563d
00000320: 1d3f 22bd 17cd 693d c1f3 a8bd 3139 4abd
00000330: 1a23 ecbc ccc4 063d 3a53 1c3d 9a09 53bd
00000340: f053 eabc ca70 c6bc fff5 4e3d 4afe 4a3d
00000350: e2d5 a5bd 5e76 10bd 6b22 04bd ecef 4f3d
00000360: ca42 1e3d 639c 92bc 1445 ffbc b1c5 f938
00000370: adda 873c 210c c9bb 4438 073c 5b20 0dbd
00000380: da97 3b3d 9376 7c3c 0703 323d 426f 343e
00000390: 7c94 0f3e 3d4e fd3b cc08 0b3e a28e 143e
000003a0: 596c ce3e 45da a43e a2cd 143e 842d c53c
000003b0: ae08 a73d 949e 0cbc 9f8a acbd 08a8 153d
000003c0: 329b 2f3d 5c96 183e c2a3 8b3e 2ddf 423e
000003d0: 6df7 583c 9fa8 08be bb15 ab3d ab92 563d
000003e0: 9385 4e3d 1484 1c3c 77af ea3d de99 7a3d
000003f0: 6dd9 963d e9ac e83c 7fa2 0a3e a16d 62bd
-0.02870373 0.048646826 -0.038470335 0.05095498 -0.049319934 0.03161498 0.15087554 -0.047620285
-0.053014275 -0.020112887 0.07384264 0.14269598 0.0048253145 -0.052065853 -0.056071658 0.15063721
-0.08915818 -0.050808765 -0.044957466 -0.060493927 0.052266277 -0.09178716 -0.043952227 -0.056073245
-0.01359433 0.100048795 -0.12970206 -0.0367402 0.030196153 0.030711934 0.12111347 -0.2843378
0.042083148 0.14747459 -0.018081563 0.22959736 -0.28460217 -0.0036585387 0.07528306 -0.0020371692
0.18645377 -0.24141277 -0.006796973 0.019446535 0.044816814 0.15599595 -0.10340972 -0.06719142
0.07958114 0.014208308 -0.03473068 0.05268693 0.023131225 -0.028137386 -0.06353159 -0.0024039478
-0.027881702 0.02405051 -0.07893786 -0.05006164 -0.047277655 -0.14459911 0.02094446 0.037519902
0.12145727 -0.07065658 0.09286075 -0.025141 -0.0231726 0.10212387 -0.049979504 0.105650954
-0.01046546 0.030831045 0.0851148 -0.053881805 0.036678273 -0.04077102 -0.044554222 -0.055218164
-0.0926284 -0.1490965 -0.021698961 -0.093390666 -0.13453428 -0.13724628 -0.2174744 -0.036513753
-0.088069774 -0.0107552875 0.034185644 -0.16417241 0.07953934 -0.006736067 0.06895276 0.10258134
0.0067371516 0.040000014 0.046200756 0.024160942 0.05887855 0.011804039 -0.051209588 -0.053586505
-0.07780798 -0.022968326 -0.13155077 -0.059205886 0.051481683 0.08637136 -0.08772809 -0.045894552
-0.034369793 0.07367581 0.07990187 -0.05999886 -0.10678713 0.030702326 0.058180805 0.052714005
0.04336535 -0.0977557 -0.013531726 0.08495598 -0.013098396 -0.08391539 -0.055022117 -0.03482475
-0.042249218 0.13998322 0.06677137 0.045693334 -0.027979702 -0.09292633 0.062112384 -0.0018642604
-0.023070173 -0.095873095 -0.045085404 0.019811137 -0.0133087495 -0.14276743 -0.028802702 0.12918727
0.2014613 0.10526254 -0.1356433 -0.0063020396 0.068655044 -0.005191574 0.028156621 -0.033383157
-0.0018043878 -0.059634738 -0.06205099 0.038480736 0.12212297 -0.12415159 -0.16214357 -0.023889752
0.09200274 -0.16928372 -0.15662913 0.05911179 0.02756903 0.022658236 0.074945696 0.0026722266
0.0614049 0.037654977 -0.035177372 0.018421486 0.060190998 -0.021059107 -0.05833796 0.029147623
0.14435789 0.02207 -0.07070183 -0.08995954 0.13870306 0.15191446 -0.20178844 -0.29707038
0.0032640486 0.046180334 -0.09552744 -0.059173197 -0.10004692 0.03068264 -0.09173221 -0.106464304
0.020226628 0.11110799 -0.018148178 -0.084091514 -0.103513226 -0.046874434 0.11474799 0.052366875
-0.03961097 0.057080355 -0.08249617 -0.04937095 -0.028825331 0.032902524 0.03816531 -0.05152283
-0.028604478 -0.024223704 0.05052757 0.049558915 -0.080974355 -0.035269134 -0.032259386 0.050765917
0.038637914 -0.017896837 -0.031160869 0.00011910068 0.016583765 -0.006135479 0.008253161 -0.034454685
0.045799114 0.01540913 0.04345992 0.17620566 0.14021486 0.007730274 0.13577574 0.14507535
0.40317038 0.32197776 0.14531568 0.024069555 0.081559524 -0.00858273 -0.084248774 0.0365372
0.042872615 0.14901108 0.27273375 0.19030447 0.013242585 -0.13345574 0.08353754 0.052385967
0.050420355 0.009552974 0.114592485 0.061181895 0.073656894 0.028402762 0.1353855 -0.05528033

weight f4 [8]
00000000: 28c3 fd3e 07c3 023f 5b5b 873f 66bf 283f
00000010: 21c7 063f eb6d 1e3f 7652 fb3e 8a80 d23e
0.49562955 0.5107884 1.0574754 0.6591705 0.52647597 0.6188647 0.4908635 0.41113693

bias f4 [8]
00000000: c3b1 ebbc b1c5 1cbf 3b6e 8dbe cbef a5be
00000010: eb10 ebbd edcb 43bf 85fa 81be ab37 56be
-0.028771287 -0.61239153 -0.27623162 -0.3240951 -0.11477836 -0.7648304 -0.25386444 -0.20919673

running_mean f4 [8]
00000000: 6493 7c3e 7972 d23c 9b55 693e 0230 15bf
00000010: b6b3 31bf 43a0 043e 9037 4e3e 0270 9dbe
0.246656 0.02568935 0.22786562 -0.5827638 -0.6941484 0.1295176 0.20138383 -0.30749518

running_var f4 [8]
00000000: 5ea2 023e 246e 743d 03ab cb3d 310e c73d
00000010: 5333 153e 5229 eb3d 5bdf a93d 4e50 1b3e
0.1275725 0.05967535 0.09944727 0.09719504 0.1457036 0.114824906 0.08294555 0.15167353

weight f4 [4, 8, 1, 1]
00000000: e8ee 3bbd 118d 0abd 77e4 f2bc 7195 503e
00000010: 9722 01bf ed46 2fbd 6a89 8b3d 1e31 243e
00000020: 0a96 4dbe 0c98 36be f172 c23c 0052 c5be
00000030: 551f 3fbd b03e 46be 4c46 683e 13cd 403f
00000040: d2cc 993e 829b 81bb bf9b 31bd eb57 0a3e
00000050: c706 a0be 4883 243e a65c d8bd b702 94bd
00000060: 66ac d03d 4e3f 893e c16a 22be 9236 07be
00000070: 0b88 753c 20c4 91bc b28d 3abe 2f6c 6b3f
-0.045882136 -0.033825938 -0.029649956 0.20369507 -0.50443405 -0.04279225 0.06813319 0.16034362
-0.20076767 -0.17831439 0.023736449 -0.38539124 -0.04666074 -0.19359851 0.22683066 0.7531292
0.30039078 -0.0039553056 -0.04336142 0.135101 -0.3125517 0.16065705 -0.10564546 -0.0722708
0.101891324 0.2680611 -0.15861036 -0.1320441 0.014986048 -0.017793715 -0.18218115 0.9196195

weight f4 [4]
00000000: 0307 1b3f b83b 003f 3956 0f3f 35e2 c63e
0.60557574 0.50091124 0.5599094 0.38844457

bias f4 [4]
00000000: 8d6c 46bf c345 11bf 55f2 15bf 7c7d 3cbf
-0.77509385 -0.5674707 -0.58572894 -0.73628974

running_mean f4 [4]
00000000: e93e 903c 0043 183e ff2b 18bd 56af 0ebe
0.017608123 0.14869308 -0.037151333 -0.13934073

running_var f4 [4]
00000000: 27d3 493d aac3 533d 2c27 183d ace3 d33d
0.049273636 0.05170027 0.037146732 0.10346159

weight f4 [14, 8, 5, 5]
00000000: d0eb 003e ce8e 303e 827f eb3c df35 b2bd
00000010: 9b84 253d df7b 283d 8fc4 de3c b9f5 8dbd
00000020: 0556 d1bc 14dd dd3b 19d7 25b9 fb65 943d
00000030: 59eb 903d 037e cebd c359 61bd 82ec 16be
00000040: 2f39 173b 905c 143d 12f4 28be 178e 0cbe
00000050: fc8b bfbd b653 d43c a629 523e f1dc bb3d
00000060: 10b4 4f3d f049 b6bd 0571 7abd fea0 cfbd
00000070: 1a25 32bd 2bb2 eebc 1a4a fb3d c151 e9bd
00000080: 9c81 3abe 144b 97bd 2da1 8cbc f57f 623e
00000090: ec3c b5bd 8c7e 84be 79d2 ebbd 0fec a1bd
000000a0: 5da4 ad3e 7d84 e93c 9e33 eebd 31ee 2bbe
000000b0: cf51 b93b 992e 153e cb2c 0e3d 8005 f4bd
000000c0: 8b58 62bd 76fd 0bbd 45e7 dbbc 6690 eabc
000000d0: 6213 3a3d cebf 16bd 2e16 d53c c04c 82bd
000000e0: f45a 9bbd ac2d 183d 42cc 673d 03f7 833c
000000f0: 1408 00be 5fbd bdbd aee0 0d3d 01d0 c93d
00000100: 018d bd3b b08a 0cbd aae0 43bc bff9 b0bd
00000110: 637b 333d be2e 643d 8ff7 423d 1939 91bd
00000120: d12e 11be bdc5 ae3c d7a2 2a3d 9b3c 4cbb
00000130: ea6e 0fbd 7d1c 8ebd 7a59 d43c ac4d 063d
00000140: 3fad e438 1509 f9bc 63b7 0bbe 2e03 fd3c
00000150: b341 043d 2d75 c0bb 605e cebb da18 7abc
00000160: 4331 243e 5bc1 033d b0c3 763d af10 24bc
00000170: ed7c 25be 398f 663d 7df5 04be e479 893d
00000180: 68c2 91bd 38cf b3ba bd83 34bd 8ebd 57bd
00000190: 8ac0 803c f584 3cbd 56e8 6abd 8838 c3bc
000001a0: 87da 3c3d d133 ce3d 46a8 623d 4d5f 73bd
000001b0: 312a 0d3c 8fce 093c c285 823d 5338 243b
000001c0: fc4b 803b d72e 193d e13b a83d e42b 8a3c
000001d0: 03b1 d2bd 865d 98bd 7eee 60bd 0276 8bbc
000001e0: 9bbc 43bd 60ae 8cbd d586 a13c 7b83 e7bd
000001f0: 0b4f 32bd 3df2 c33d 47dc dc3b 99a7 80be
00000200: 6094 f5bd 30ce 92bc 79f2 83bc 19ec e6bb
00000210: 0365 37bc 302a 863d 1bbc 803d c1cb 683e
00000220: dae6 a7bd 58cb 1ebe 7e22 0abe 3c57 82bc
00000230: c8b5 3f3e d1a4 913d 3b76 40be 6ac3 463c
00000240: 559c 9bbd 308a 2c3d 5a8e 89bd 9ffd 1cbe
00000250: 5f76 db3d d80c f8bd 3cf7 ab3d 8de3 1a3c
00000260: 3985 c5bd c379 823d 704d 793d ab45 5a3e
00000270: 9d59 34bd 469a 02be 28a5 9abd 7329 463d
00000280: 0df1 853d 2637 52bd b49b 19bd b55e b2bd
00000290: 2afe b23d dba4 47bd cdb5 e73d e644 95bd
000002a0: 7ce1 04be 44d9 5b3c 4feb 0fbe 2c90 443e
000002b0: 2b0c 143d c4c4 9f3d 743b 123c ce5b 06be
000002c0: e03c 743e af17 013e f3e6 0cbd dd49 93bd
000002d0: c20e 863d 6162 193d 4c4f f73a 2194 d73d
000002e0: 2100 833c e1ae 1e3d 7b0c 81bd 8bf2 1fbd
000002f0: f252 01bb d1d8 9b3d 5b87 d73d aa7b 11be
00000300: 5814 c5bd f90b edbd 96e5 1fbe bdd0 4f3d
00000310: 1c95 ab3c b721 5dbd a033 d5bd bd17 26be
00000320: ec27 573d 7ac2 9c3c 145c 9d3d 0536 92bd
00000330: 3ab3 8fbd 17fa 093e ddaf f63b 342f 603c
00000340: 1485 e4bd 27aa 0fbe 7d65 683e f711 c03d
00000350: 28f9 5dbd b304 08be f5a6 29be f26d 343e
00000360: 032c 05bc b4e2 213d 737a ff3c 7fa8 e8bd
00000370: d8ed 4f3d 3919 03bd 3d77 273d ca75 e53d
00000380: 7dbd fbbd 2bf3 91bd fbc4 05be a2e7 9abc
00000390: 17ef da3c e96a 22be e66b bc3c 25b0 09be
000003a0: 4c14 7abd 455d 14bc 1d42 ecbc aebd 80bb
000003b0: c2ca a93c 053c f23c 2116 1cbd 001c 933d
000003c0: 1d6c 213d 59d9 e13d 6869 943d 1784 a6bc
000003d0: 075a 58bc f5b6 c1bc dda0 1d3e 15a4 d43d
000003e0: 82e4 8cbd 21c6 123d 312f 0d3d 3509 cd3c
000003f0: b8cb adbd a8f2 0abd 5c37 39bc 4c4d 313c
0.12589955 0.17241976 0.028747324 -0.08701681 0.040409666 0.041133758 0.027193336 -0.069316335
-0.025553713 0.0067707393 -0.00015815756 0.07246014 0.07076139 -0.100826286 -0.055017244 -0.14738658
0.0023074856 0.036221087 -0.16499355 -0.13726078 -0.09352872 0.025918823 0.205237 0.091730006
0.05070883 -0.08900821 -0.06114294 -0.10138129 -0.043492414 -0.029137691 0.12269993 -0.113925464
-0.18213505 -0.07387367 -0.017166698 0.22119124 -0.088495106 -0.25877798 -0.11514754 -0.07906353
0.33914462 0.028505558 -0.11630939 -0.16790082 0.0056555043 0.14568557 0.034710687 -0.119151115
-0.055260222 -0.034177266 -0.026843676 -0.028633308 0.04542864 -0.036804013 0.026011553 -0.06362295
-0.07585707 0.03715293 0.05659128 0.016108995 -0.12503082 -0.09264635 0.0346381 0.09854127
0.0057846312 -0.03431195 -0.01195542 -0.08641385 0.043818843 0.05570864 0.04759937 -0.07090969
-0.14178015 0.021334523 0.041659202 -0.0031164053 -0.035017885 -0.069390275 0.025921572 0.032788917
0.00010904157 -0.030399838 -0.13644175 0.030885305 0.03228922 -0.0058733434 -0.0062978715 -0.015264714
0.16034417 0.03216682 0.060245216 -0.010013743 -0.16160937 0.05628893 -0.12984271 0.06712702
-0.07117158 -0.0013718372 -0.044070948 -0.052671008 0.01571681 -0.046025235 -0.05735048 -0.023830667
0.04610684 0.10068477 0.05533626 -0.059417058 0.008616016 0.008411064 0.063731685 0.0025057986
0.003915308 0.037398186 0.08214546 0.016866632 -0.102876686 -0.07439713 -0.054914944 -0.017024044
-0.04778729 -0.06869197 0.019717613 -0.11304375 -0.043532412 0.09567688 0.0067401263 -0.25127867
-0.11991191 -0.017920583 -0.01610683 -0.007047188 -0.011193517 0.065510154 0.06285878 0.22733976
-0.08198328 -0.15507257 -0.1348972 -0.015910737 0.18721688 0.07111514 -0.18795101 0.012131551
-0.07598177 0.042123973 -0.067166045 -0.15331124 0.10715937 -0.12111825 0.083967656 0.009453666
-0.09644551 0.063708805 0.060864866 0.21315639 -0.044030774 -0.12754163 -0.07551032 0.048379373
0.065401174 -0.051322125 -0.037502006 -0.0870947 0.08739884 -0.048741203 0.113139726 -0.07288532
-0.1297664 0.013418499 -0.14054607 0.19195622 0.036144417 0.07801202 0.008925308 -0.13120958
0.23851347 0.12606691 -0.034399938 -0.07191823 0.065457836 0.037447337 0.0018868237 0.105263
0.015991272 0.038740996 -0.063012086 -0.039049666 -0.0019733277 0.07609714 0.10523864 -0.1420733
-0.09623021 -0.11574549 -0.15614924 0.050736178 0.020945124 -0.05398723 -0.10410237 -0.16219993
0.052528307 0.019135702 0.07683578 -0.0713921 -0.07016607 0.13474308 0.0075282888 0.013683129
-0.11158195 -0.14029752 0.22694965 0.093784265 -0.054192692 -0.13283043 -0.16567595 0.17620066
-0.008128169 0.03952284 0.031186318 -0.11360263 0.050763935 -0.032006476 0.0408852 0.11204107
-0.122920014 -0.07126459 -0.13063423 -0.01890928 0.026725335 -0.15861095 0.023000669 -0.134461
-0.061054513 -0.00905544 -0.028840119 -0.0039288616 0.020726565 0.029569635 -0.03810704 0.07183075
0.039409745 0.11027784 0.07246667 -0.020326657 -0.013205058 -0.023646811 0.15393396 0.10382859
-0.06879522 0.03583348 0.034468833 0.025028804 -0.08486122 -0.03392282 -0.011304703 0.010821652

weight f4 [14]
00000000: aeb6 d33e fcd0 2b3f 9a53 5e3f d7ac 283f
00000010: 6325 dc3e 0557 2d3f 1e01 013f ad03 453f
00000020: c90c df3e 19a4 253f 08b3 193f d63f 393f
00000030: a27c 483f 8f0f 503f
0.4135031 0.6711576 0.86846316 0.6588873 0.42997274 0.67710906 0.5039233 0.76958734
0.43564442 0.6470352 0.60038805 0.7236303 0.78315175 0.8127374

bias f4 [14]
00000000: bb5d b0be 8652 dfbc e203 88be cf66 d9be
00000010: 8f26 22bf eee9 6d3e 825e 39be fd08 29be
00000020: 90d9 69be 652c aebe 36b7 0ebf 67c3 9b3d
00000030: f4c9 1ebc 66ac b03d
-0.3444651 -0.02726103 -0.26565462 -0.4246125 -0.63340086 0.23233768 -0.18102458 -0.16507335
-0.228369 -0.34018245 -0.5574831 0.076056294 -0.009691704 0.086266324

running_mean f4 [14]
00000000: cc43 2b3f 3016 193e 6dc6 28bf ee5d 33bf
00000010: 5c08 253e ca0a 003f a179 6b3d 9279 9cbe
00000020: 910d 70bd c245 a9bc fcf2 cbbe 8242 9e3e
00000030: 8385 f1be 4249 cd3e
0.66900325 0.1494987 -0.65927774 -0.700652 0.1611647 0.5001646 0.05748904 -0.305615
-0.058606688 -0.020663146 -0.3983382 0.30910116 -0.47172174 0.40094954

running_var f4 [14]
00000000: ef4b 813e 4de2 ef3e a254 b03e e637 b13e
00000010: 43cd 8a3e bcaa 943e 1072 aa3e 283b 113f
00000020: ccd2 943e da81 9c3e 08b7 a63e a532 073f
00000030: 01b1 fd3e 4712 993e
0.25253245 0.4685234 0.3443957 0.3461296 0.27109727 0.2903651 0.33290148 0.5673089
0.29067075 0.3056782 0.32561517 0.5281165 0.49549106 0.29896757

weight f4 [6, 14, 1, 1]
00000000: adc4 d1bd 55f4 a53e dbb1 073e 29e2 8f3e
00000010: 8c21 96be 3fe1 473d f4cf 133e 87e6 033e
00000020: 0ebd abbc fea4 5f3c 56a3 883e 1763 c43d
00000030: b381 86bd 4cca c8bd c589 67bd 11c1 6ebe
00000040: e9ae 413e 714d 403d 72ce d7be a5b1 16be
00000050: 694a bc3d 2df5 a33e 7cbe b83d 1d5b 5b3e
00000060: 5057 90bd c24d 6cbe f62c 4e3e 75e5 41be
00000070: d43f 8b3d 4d3b 74be 4d25 69be adb9 c23e
00000080: fe44 6abe 94a9 c63b 1ee7 d6bc 95a9 1dbc
00000090: a015 c73d 9220 6bbd df62 7a3c c8f3 4a3e
000000a0: 9dbe 2abe 383f 1dbd 317a 5bbe 1cdf ebbc
000000b0: 8ac7 043e 0228 a23e 201c 73be 28ee a6bd
000000c0: ecb1 7bbe 2bcb 0c3e d0b8 193e 1297 1abd
000000d0: 6691 9abd 49d5 1bbe a6ef 40bd 0f62 22be
000000e0: 9b93 5a3e f4ba 753e 4e0a 2b3e 0f82 f33d
000000f0: 306b bf3d 9088 533d bc64 9c3d d506 3cbd
00000100: 0761 493d 6ceb a63e 9ead d8be 92e9 7e3a
00000110: 6206 223d 30e4 8b3d e33f 813e 098b 97be
00000120: 4213 033d b446 ec3d b6c5 013e b68d c8bd
00000130: 4eb9 043d 5f05 973d ca9a bc3e 892b 11be
00000140: ef76 3abe 624a 60be ee94 40be dee3 08be
-0.10242591 0.32412973 0.1325144 0.28102234 -0.2932247 0.048798796 0.14434797 0.12880908
-0.020964172 0.013650177 0.26687115 0.095892124 -0.06567707 -0.0980421 -0.05652787 -0.23315836
0.18914379 0.046948854 -0.42149693 -0.14716204 0.0919388 0.32022992 0.09020707 0.21421476
-0.070479035 -0.23076537 0.20134339 -0.18935187 0.067992836 -0.23850746 -0.22768135 0.38032284
-0.22877881 0.0060626958 -0.026233252 -0.009622951 0.097209215 -0.05740411 0.015282362 0.19819558
-0.16674276 -0.03839037 -0.21433331 -0.02879291 0.12966743 0.3167115 -0.23741198 -0.081508934
-0.2457959 0.13749377 0.15011907 -0.037741728 -0.07547264 -0.1521808 -0.047103547 -0.15857719
0.2134537 0.23997098 0.1670315 0.11890041 0.09346616 0.051643908 0.07636401 -0.045904953
0.049164798 0.32601488 -0.4231996 0.0009724136 0.03955687 0.06830633 0.25244054 -0.29598263
0.032000788 0.11536923 0.12673077 -0.09792654 0.032403283 0.07374071 0.36836845 -0.14176764
-0.18209432 -0.21903375 -0.18806812 -0.13368174

weight f4 [6]
00000000: 2b46 9a3e 9b7b 2f3f 15b3 2a3f 7e59 a63e
00000010: 567c 933f 05d7 9b3e
0.3013166 0.6854798 0.6667951 0.32490152 1.1522319 0.30437484

bias f4 [6]
00000000: 4f4a 5fbf b1ce 9cbe 4be6 97be 347c 6cbf
00000010: a6b9 a73e 6c68 7fbf
-0.8722276 -0.30626443 -0.29667887 -0.9237702 0.32758826 -0.9976871

running_mean f4 [6]
00000000: 149d b6bd 3f01 393b e58d 483d 27d2 393d
00000010: e774 cabd 642e 42be
-0.08916679 0.0028229502 0.048963446 0.045366433 -0.098855786 -0.18963009

running_var f4 [6]
00000000: 32ad 3e3d 15ab dd3d 564f de3d f93b 523d
00000010: 8c32 273d db77 503d
0.04655189 0.10823647 0.10854976 0.051326726 0.04081969 0.050895553

weight f4 [24, 14, 5, 5]
00000000: 3d11 9bbd 2b4a 683d d534 04bd e0d4 9d3d
00000010: 2c7f 823c 1c2a b93d 958a 623d e4ac 303c
00000020: 756c d73d 8d4e 4c3c f3a3 9e3d ea5b 6e3c
00000030: 3d8d febc 84fe 093b 1cf9 d53d 2019 7dbc
00000040: 65c0 723d e000 4fbd bcb9 a23e 297d 01be
00000050: 7e39 2fbd 012d 22bd fc86 a8be 461a 433e
00000060: d8b6 2abe 1cbf bdbd 54a9 dab9 a4c5 b2bd
00000070: 5480 48bd e68f d0bd 45ba 233c 045a 5b3c
00000080: a4df 48be 51c8 40bd 900d 9fbd 9f88 903b
00000090: 5e1a 423c d097 0bbe fd5e c5bd aad5 a5bd
000000a0: 08cd 723c ff32 9b3d 65ba 033e 4022 a8bd
000000b0: 3f79 d3bb 694f 223c 9663 d4bd 36fa 6f3e
000000c0: c8a3 0fbe 0a55 9b3d 6b55 063c e76c 023e
000000d0: 6a8d e43d b875 98bc 83ea a2bd e915 d2bd
000000e0: e27a 953d 1013 613d e4fc ca3c 9811 8fbd
000000f0: b27a 143b d952 33bd 84d7 3abb 4159 3ebd
00000100: c3b1 f13c 7ed2 703d 866f 02bc 623d 073d
00000110: 17da cf3d 6c8b 183d f9d0 b13c e4f4 f0bc
00000120: efd2 c33e aaa5 4cbd 9bc8 e3bc 5fa1 00be
00000130: 934c 8f3e 6d22 333e bb37 b0bd 4c83 ce3d
00000140: 22d5 abba eadc 123e 7979 c93d 51f4 debc
00000150: f808 f53c 5cfc e43c 6b88 b53d 210c c23d
00000160: b155 cabd f57e 973c 0edc e4bc 2e31 aebd
00000170: 2b47 45be 7bc2 6b3e f0a7 f5bd 76bf ce3d
00000180: 9229 80bd aaa6 383d 7533 023e ddaf e93d
00000190: dffc 8a3c 2c86 f9ba c37c 23bd c0f9 383d
000001a0: b741 6ebc 0a31 03bd e2fb db3d 1475 adbd
000001b0: 89ab b33c 4e59 ba3b cff5 98bd b445 8ebb
000001c0: 0d24 9f3c 351f dd3c 676c a8bd e3d8 2bbe
000001d0: 109e 863e 6c7a 75bd 99d2 7bbd 143d 68bc
000001e0: 2e65 cdbd a4f3 8b3e c57d a83c d3db 93bc
000001f0: 904b 3dbc 721b 87bd 2593 d03d 15b8 6bbd
00000200: b781 673d 28f6 4abd a1cb 243d 0b68 eb3d
00000210: 7d05 243d 32d8 903d 3025 32bd 923d 26bd
00000220: 15b4 18bd 7068 8c3d a0ac 9c3d ef20 943c
00000230: 41ea 24be 20cd 0ebd cf95 72bd 4e4d eb3d
00000240: ff8c 33be 32cd 8d3c 7b68 2bbd e666 433e
00000250: 57c7 d43d 2887 d43d d1be 513d 1e1e 223e
00000260: d687 ce3d a25b efbc e6e7 913c 26d2 98bb
00000270: 8cab 9a3d 0871 78bc 85f8 413b bb2b b0bc
00000280: 8898 003c ca3f c33c 4395 2ebd a43e 5abd
00000290: b8f1 0abd 8919 c038 bc6e 2cbd b8d1 b63a
000002a0: 184a 253d ac00 b5bd 144a 073c d8da bb3c
000002b0: e97e 7ebd 507f 38bd ffaa 8b3b 4975 49be
000002c0: 4dfb 2e3e 2ccd 0fbc a836 5d3d 2cd0 41bd
000002d0: c7d4 98bd 3b66 133d 3414 a7bd 17f2 ff3c
000002e0: 7799 a9bb e386 2bbd c7de 91bc 7de2 63be
000002f0: d9ec 17bd 5b08 eebc 7b99 07bd aca7 db3d
00000300: 91c6 05be 0c3c c9ba 6a86 b03c 37a2 2e3d
00000310: 24c5 1a3e b5dc e0bd 7997 643d 5c66 553e
00000320: 0398 023d 5f73 c0bd 243a ca3c 5426 95bd
00000330: 1dad 2c3e 7306 0ebd b2a0 6abd 2a9a b33b
00000340: 9c19 06bd f8e1 d53d 8ca5 0c3c a7f3 2cbe
00000350: e2da 5dbd 6397 ba3d c25c 233e 7883 0dbd
00000360: 2bbf 6f3e 21b5 80bd ed68 833d b3d0 013d
00000370: bc38 0a3e 117f fc3d 37a7 79bd 23fb 0b3e
00000380: 3bc5 15bd 6807 6f3d de04 07be 2e6f a83e
00000390: ea44 9fbc da2d 18bc b6d7 80bc b20f 883d
000003a0: 6533 203c aaaf 62bb c999 c83c 3e1d 743c
000003b0: 4222 513c 078b b3bd 3530 333d a34d f2bb
000003c0: 7f70 8ebb ab0a 6f3d a163 2e3d d726 d9bd
000003d0: ac02 ffbc b8e8 413d 9f1b 26bd 22fc 6a3d
000003e0: 23fa 933b fc3f 153d d21d 08bd 0f66 2a3e
000003f0: 3ca6 56be 19b0 97bc 6d9e e73c d4c2 8ebd
-0.07571647 0.056711357 -0.032276947 0.07706618 0.01592978 0.09041235 0.055307943 0.010783408
0.105187334 0.0124699 0.077461146 0.014548281 -0.031073207 0.0021056244 0.104479045 -0.015447885
0.059265513 -0.050537944 0.3178233 -0.12645401 -0.04277944 -0.0395937 -0.32915485 0.19052991
-0.16671312 -0.09264967 -0.0004170636 -0.08729103 -0.04895051 -0.101836964 0.009993141 0.013388161
-0.19616562 -0.047066037 -0.07766259 0.0044108178 0.011847107 -0.1363213 -0.09637258 -0.08097394
0.014819391 0.07578086 0.12864073 -0.08209658 -0.0064536626 0.009906628 -0.10370557 0.23435292
-0.14027321 0.07584579 0.008199076 0.12736855 0.11159785 -0.01861082 -0.07954886 -0.10258085
0.07298829 0.05494982 0.02477879 -0.069857776 0.002265614 -0.04378018 -0.0028509805 -0.046471838
0.029503709 0.05879449 -0.00796116 0.033017524 0.10149019 0.037242338 0.021706091 -0.029413648
0.38246867 -0.049962677 -0.027805617 -0.12561558 0.2798811 0.17493601 -0.0860438 0.10083637
-0.0013109783 0.14342085 0.09837622 -0.027216109 0.029911503 0.027952366 0.0886391 0.0947497
-0.098796256 0.018493155 -0.027936962 -0.08505474 -0.1926543 0.23023407 -0.11994922 0.10095112
-0.06257929 0.04508082 0.12714942 0.114104964 0.016966281 -0.0019037179 -0.039913904 0.045160055
-0.014542035 -0.03202919 0.10741402 -0.084695965 0.02193238 0.0056869155 -0.07468759 -0.0043418054
0.01942637 0.02699242 -0.08223801 -0.16781954 0.26292467 -0.059931204 -0.06148014 -0.014174718
-0.10029064 0.2733432 0.020567784 -0.018049156 -0.01155366 -0.06597032 0.101843156 -0.0575486
0.05652019 -0.04955116 0.04023326 0.11494454 0.040044297 0.07072486 -0.043492496 -0.04058606
-0.037281115 0.06855857 0.07650113 0.01808211 -0.16104986 -0.03486359 -0.0592249 0.11489354
-0.17534254 0.017309759 -0.041847687 0.19082221 0.103895836 0.103773415 0.051207367 0.15831801
0.100845024 -0.029218499 0.017810773 -0.0046637235 0.07552251 -0.0151636675 0.0029597592 -0.021505227
0.007848866 0.023834128 -0.042622816 -0.053282395 -0.033921927 9.16003e-05 -0.042097792 0.0013947999
0.040353864 -0.08838019 0.008257408 0.022931501 -0.06213275 -0.04504329 0.0042623277 -0.19673647
0.17088051 -0.008776944 0.054007202 -0.04731767 -0.07462459 0.035986166 -0.0815815 0.031243367
-0.005175765 -0.041876685 -0.017806424 -0.22254367 -0.03709111 -0.029056719 -0.033105355 0.1072534
-0.13064028 -0.0015352978 0.021548469 0.04263517 0.15114266 -0.109795965 0.055808518 0.20839828
0.03188325 -0.09397005 0.024685927 -0.07282701 0.16862912 -0.03467412 -0.057282157 0.0054810243
-0.032739267 0.10443491 0.008584391 -0.16889821 -0.05416382 0.09110906 0.15953353 -0.034549206
0.23412769 -0.062845476 0.064164974 0.03169317 0.13498205 0.123289235 -0.060950484 0.1367002
-0.036565047 0.058356673 -0.1318545 0.32897323 -0.01944204 -0.009288276 -0.015727859 0.06643619
0.009777878 -0.0034589567 0.024487393 0.01489955 0.012764515 -0.08766752 0.043747146 -0.007394509
-0.0043469067 0.058359783 0.042575482 -0.10603111 -0.031129204 0.04734108 -0.040553685 0.05736936
0.0045159026 0.036437973 -0.033231564 0.16640495 -0.20961851 -0.018516587 0.028273785 -0.06970754

weight f4 [24]
00000000: 2523 203f cadd f83e 94c4 213f 3d3a eb3e
00000010: a045 5f3f d750 2c3f f0ec 393f 9775 253f
00000020: 07c3 463f 1a84 063f 59c2 ef3e 8c1c 243f
00000030: 404e 0c3f 3ec2 073f a0d4 ec3e 28fd 003f
00000040: fe7e e13e 419a 133f f3a5 e33e 756f 583f
00000050: 8eb0 fe3e 70d9 193f 1d5f 0a3f a956 2b3f
0.62553626 0.48606712 0.6319058 0.4594287 0.87215614 0.6731085 0.7262716 0.6463255
0.7764134 0.5254532 0.46827963 0.6410606 0.548069 0.53030765 0.4625597 0.50386286
0.440422 0.5765725 0.44462547 0.8454507 0.49744076 0.6009741 0.5405138 0.6692911

bias f4 [24]
00000000: f8c9 40bf 371b 22bf 402b 3cbe 522e e3be
00000010: 7406 8cbb 5e35 ebbe 792f 8ebe 83ff acbe
00000020: 0d1b 8cbe fda8 2cbf 3a6c 24bf 7506 d5be
00000030: a82e 1cbf 7772 ddbe 376a 48bf 3f48 4abf
00000040: 6bfb dabe 5295 85be e807 fcbe 1f1e 35be
00000050: 9b34 acbe 4b45 adbe ac23 c0be 0743 2cbe
-0.7530818 -0.63322777 -0.18375874 -0.44371277 -0.00427323 -0.45939153 -0.27770594 -0.3378869
-0.27364388 -0.67445356 -0.6422764 -0.4160649 -0.6100869 -0.43251392 -0.7828707 -0.7901649
-0.42769942 -0.26090485 -0.49224782 -0.17687272 -0.33633885 -0.3384193 -0.37527215 -0.16822444

running_mean f4 [24]
00000000: 9e6a d7bd 4e07 71be cb2a 453e 4f77 233d
00000010: 5970 b93e 68c4 8fbe f81a f7ba eadc 8bbe
00000020: dc0a 373f b36b 293d c635 1fbf 9860 893e
00000030: e70d 55be e9b6 f8bd 3a1d 9abe 31f6 9abd
00000040: 6945 e4bd 7aea fcbe 328e f1bd c52e 58be
00000050: e554 d4be 3884 1cbf eeae 923c cb62 b73d
-0.105183825 -0.23537943 0.19254605 0.039908703 0.36218527 -0.28079534 -0.0018852642 -0.27316982
0.71500945 0.041362476 -0.62191427 0.26831508 -0.20806085 -0.12144262 -0.30100423 -0.075664885
-0.111460514 -0.4939764 -0.117947 -0.21111591 -0.4147102 -0.6113925 0.017905679 0.0895439

running_var f4 [24]
00000000: fddb 533f efd9 3e3f 61bd d83f 648a 883f
00000010: d5d6 a63f 42d5 8f3f 267c 8a3f 81bf 913f
00000020: d86e 9a3f 2118 5d3f e63d 433f 6577 983f
00000030: 6d42 3c3f 9f0d 443f e3a9 1e3f 3383 203f
00000040: 209a 623f f955 bd3f 8d46 4a3f 814a ca3f
00000050: 43d6 5b3f 913b b63f 8ac7 843f f13e 803f
0.8275755 0.7455129 1.6932794 1.0667233 1.3034312 1.1236956 1.0819137 1.1386567
1.2065077 0.8636494 0.76266325 1.1911436 0.7353886 0.76583284 0.61977977 0.62700194
0.88516426 1.4791862 0.790139 1.5803987 0.8587381 1.4236928 1.0373394 1.0019208

weight f4 [68, 24, 4, 1]
00000000: 3d32 ffbd 13e6 80bd 210b abbd 3a1a d23d
00000010: b467 003d 00be 2bbe fbe7 3bbb b6c5 113e
00000020: 02ce 6abc 6c9d 4d3d 8624 9fbd 88f9 a03c
00000030: d5a3 f23c 4885 3d3d e72f 17bd 5f72 e13b
00000040: 68bb 463d ffe9 eabc 2b66 69bc fc3e 6cbd
00000050: ad80 e3bd 236b 56bd a2a6 033d 8fd0 6cbd
00000060: f8d2 0fbe e7f9 373d 5f0b 2a3b ed6f 7ebd
00000070: c2e4 97bd 3374 d5bd e3e6 d5bd 64d4 e5bd
00000080: 0d61 933d 95a7 1bbd 3793 06be 223b 003e
00000090: 3a4f 9a3d 8632 09bb 99fd 983d 7b5b a43d
000000a0: 4f24 793d 5100 0f3e 1291 9e3d c805 383d
000000b0: f8f3 f23d e80f 90bc c426 16bc 4eb2 2ebe
000000c0: 3ae9 a3bc e60d 2dbd 6e08 8ebd a083 03be
000000d0: 168f 133c 2996 e23b b748 d1bd 94c9 103d
000000e0: 416f df3d 17ce 843d 1fba bcbe 556e 3b3e
000000f0: 61d8 60be e8a2 51be cf79 2dbe 1943 cd3d
00000100: efed 93bc 1985 35be da5f 88bd 25b3 863d
00000110: 6a76 a7bc 232d 1dbe f40f 823c c716 373e
00000120: 5025 083e d072 333d 8d23 49be 30a7 f3bd
00000130: befb 7ebe d04d b2bd 62bf 813b 1823 24bd
00000140: a583 2c3d b9c0 2d3e c9ef 103e 45a2 6f3c
00000150: f2ea 86bd d5c4 f03c f8d8 60bd cb39 b8be
00000160: 07df 9fbd 1730 133c 9923 97bc 188a 943d
00000170: 3052 403d b472 003c a011 303d 795a 23bd
00000180: dd71 3fbe 25f5 a43a be4a 10be 9c99 493e
00000190: bd6a 1bbc 5fb4 983c e83a a9bd 3737 543b
000001a0: 27e9 0bbd 9a35 7abc e817 803c 4998 86bd
000001b0: 94e8 863c 969a 423e 47f0 51bc 8a05 283c
000001c0: 07f4 cebc 9198 833d 8de5 593c cea1 e3bd
000001d0: 7d77 51be faf2 8fbd c9fb a6bc 4e47 5ebe
000001e0: 2c5e a9bd 66f5 5f3d 4058 a53d f9e5 fbbd
000001f0: c3eb 683d 6f85 eabc 9924 343c 246d 3ebe
00000200: 52a0 c2bb b0cb 0d3c 7be4 95bd 779e 0b3e
00000210: 5f97 223b 1c87 b4bd ae4d b63d 749a 553e
00000220: 4472 4b3c 28d3 77bd c421 64bd 7139 b03d
00000230: 45da 7abb b2fe 273b 6ca1 ec3d 5e3d 89be
00000240: d8e5 bb3d 1dc4 b53d 7a20 2d3c b57c 8d3e
00000250: edfe 16bd 5ad0 1c3d a5f2 eebd a532 2f3e
00000260: e22e d9bd 2739 5dbc 7266 063e ecb9 59be
00000270: 0f06 cb3c 6dcc f83d ce04 0fbd 9c6d 043e
00000280: 1803 27be 0710 f5bd 5878 07bd 1c53 6ebd
00000290: 55fd 79bd bb8f a13d db55 37bd 8c9c 4fbb
000002a0: 4d8d d73b 86ce 90be 98ef 7bbe 54f6 e53d
000002b0: 5a27 c2bd 9d28 4abd 5537 8d3c adf1 a53d
000002c0: 092e 973d b997 eebd d41b 603e 57c3 203b
000002d0: b43a d33d d68c 37bd a6c9 2fbd ff7d 0bbd
000002e0: 12d4 13bd eb7b ebbd 946f babd a45c 243e
000002f0: 19d5 793d 845c 1e3c 8cf9 7dbd ebc1 463d
00000300: ac62 273e 081e 0dbe 034b 05be c153 803d
00000310: 4f20 9c3d 1e19 c33d 2651 4abd c003 87bc
00000320: a896 73be aa04 28be d47b 9abd 2f8d 78be
00000330: 9fe3 df3d 34e7 b63e 6dbf 163e aa7d 233d
00000340: 8e06 afbc 4977 4e3c 3e59 9dbc b8a7 9fbd
00000350: e0fc 48be 05cf 5bbd a22b 86bd 1906 2bbc
00000360: 69a4 a6bd d099 4fbc a610 bc3d 2967 96bd
00000370: ba9f 76bd 9c9e 9abd 435d 79bb 08d8 643c
00000380: 2f88 2a3d 78a3 073e 64fe f43d 321c 11be
00000390: 3217 bbbd ede7 163e f69b 483e 35e3 67bd
000003a0: f770 a23d bccb 29bd 37cd babd 9231 613b
000003b0: 199d 2a3d eb2e 19bc 3e56 e2bc d20c 9e3c
000003c0: b7e7 e93d 20fe 373d f7f2 31bd 0ab7 243e
000003d0: f46b 743b b0e9 2cbe e25d 5c3d a4de 083c
000003e0: 4bed ee3d 5093 783a b4e7 0bbe 3342 a83d
000003f0: 98d4 b13d 8717 833d a0ce 96bc 6f8d 53be
-0.12460754 -0.06293883 -0.08351732 0.102589086 0.0313489 -0.16771698 -0.0028672207 0.14235577
-0.014331343 0.050198957 -0.07770638 0.019650236 0.029619137 0.046269685 -0.036910918 0.006880089
0.04851857 -0.028676031 -0.01424555 -0.057677254 -0.11108527 -0.052348267 0.032141335 -0.057816084
-0.14045322 0.04491606 0.002594672 -0.06211846 -0.07416679 -0.10422554 -0.10444429 -0.11222151
0.07196245 -0.038001616 -0.13142096 0.12522557 0.075346425 -0.0020934655 0.07470245 0.08025261
0.060825642 0.13964964 0.07742514 0.04492739 0.118629396 -0.01758571 -0.009164516 -0.17060205
-0.020008672 -0.042249583 -0.069352016 -0.1284318 0.009006282 0.006914873 -0.102189474 0.03534849
0.10909892 0.06484621 -0.3686075 0.18303807 -0.21957542 -0.204723 -0.16940998 0.100225635
-0.018057792 -0.17726554 -0.06658907 0.06577138 -0.020442206 -0.1534925 0.015876748 0.17879783
0.13295484 0.043810666 -0.19642468 -0.11897123 -0.2490072 -0.08706248 0.003959582 -0.04007253
0.042117734 0.16968049 0.14153971 0.01462609 -0.06587781 0.029390732 -0.054894418 -0.35981593
-0.07806211 0.0089836335 -0.018449591 0.07252902 0.04695338 0.007839847 0.04298556 -0.039881203
-0.18695779 0.0012585266 -0.14091012 0.19687504 -0.009485898 0.018640695 -0.082631886 0.0032381543
-0.0341579 -0.015271569 0.0156364 -0.06572015 0.016468324 0.19004282 -0.012813634 0.010255227
-0.025262846 0.06425584 0.013299358 -0.11114846 -0.20455737 -0.07028766 -0.020383732 -0.21706888
-0.08269915 0.05467739 0.08073473 -0.12299723 0.056865465 -0.02862808 0.010995054 -0.18596321
-0.005939522 0.00865452 -0.0731897 0.13634668 0.0024809462 -0.088148326 0.08901535 0.208597
0.01241738 -0.06050411 -0.055696264 0.08604706 -0.0038277071 0.0025633988 0.11554226 -0.26804632
0.091746986 0.08875296 0.010566825 0.27634206 -0.03686421 0.038284637 -0.116673745 0.17109163
-0.10604645 -0.013502396 0.13125017 -0.2126233 0.024783162 0.12148366 -0.03491669 0.12932438
-0.16309774 -0.119659476 -0.033073753 -0.058184728 -0.061032612 0.078887425 -0.044759613 -0.0031679003
0.0065781237 -0.28282565 -0.24603117 0.11228624 -0.09480162 -0.049355138 0.017238298 0.081027366
0.073818274 -0.116500326 0.21885616 0.0024530494 0.10313931 -0.044812046 -0.042916916 -0.034055706
-0.036090918 -0.11498245 -0.09103313 0.16050965 0.06099424 0.009665612 -0.062005565 0.04852478
0.16346234 -0.13780987 -0.13016896 0.06265975 0.0762335 0.09526275 -0.049393795 -0.01648128
-0.2378794 -0.16408029 -0.075431496 -0.24272607 0.10932087 0.3572327 0.1472146 0.039914764
-0.02136543 0.012601682 -0.019207593 -0.07795662 -0.19627714 -0.053664226 -0.06551291 -0.0104384655
-0.081368275 -0.012670949 0.09182863 -0.07343895 -0.06021092 -0.075497836 -0.0038049973 0.0139675215
0.04163378 0.13245952 0.11962584 -0.14170912 -0.091352835 0.1473691 0.19590744 -0.056613166
0.079317026 -0.041454062 -0.09121173 0.0034361822 0.041653726 -0.009349565 -0.027629014 0.019293223
0.11421149 0.044920087 -0.0434446 0.16085449 0.003729579 -0.1688602 0.05380047 0.008353863
0.11666354 0.00094824005 -0.13662606 0.082157515 0.08683127 0.06400972 -0.018409073 -0.20659421

weight f4 [68]
00000000: 4184 283f 1464 543f dd18 903f b48a 4a3f
00000010: 7321 9b3f 04a6 5f3f 7f91 973f 88dc 2c3f
00000020: 38fe 6e3f dccb b13f e1a5 713f f327 293f
00000030: 9480 123f eebc 5e3f a647 9b3f 3ab6 993f
00000040: f3c3 893f e1f6 bf3f 2b5e 663f 4303 6b3f
00000050: 93cd 883f f7c5 7f3f 196e 6a3f c976 1b3f
00000060: 877f 6a3f 56d7 7d3f 4dec be3f 2366 4e3f
00000070: 6e16 773f c51b 843f a7cc a13f 8f40 6d3f
00000080: 93eb 1c3f a6b9 003f f893 ff3e e769 4e3f
00000090: 01ac 523f cda7 923f c398 943f f13b 603f
000000a0: f81d cd3e c65c 9f3f da40 653f 1689 b23f
000000b0: 5849 553f 825f 4d3f 9674 db3e a071 653f
000000c0: 4462 833f bb8c 903f 75cd 773f f297 853f
000000d0: 5839 803f 9163 863f 4a01 863f 6b6f ab3f
000000e0: ee6d be3f d11a a23f 4753 b63f 44ae 2b3f
000000f0: 5a03 8a3f 66af 613f 8e69 4e3f a1e7 2b3f
00000100: 8043 873f 2226 923f 905f 3b3f 66a0 f13e
0.65826803 0.8296521 1.1257588 0.79117894 1.2119583 0.87362695 1.1841277 0.67524004
0.9335666 1.3890338 0.94393736 0.6607658 0.57227445 0.87007034 1.213124 1.2008736
1.0762924 1.4997216 0.8998744 0.9180185 1.0687736 0.99911445 0.91574246 0.60728127
0.9160084 0.991567 1.4915863 0.806246 0.965186 1.0320975 1.264058 0.92676634
0.6129696 0.5028328 0.4991758 0.80630344 0.8229371 1.1457459 1.1609119 0.87591463
0.40061927 1.2450187 0.8955208 1.3948085 0.8331504 0.8022386 0.42862386 0.89626503
1.0264363 1.1292948 0.9679788 1.0436995 1.00175 1.0499135 1.0469143 1.3393377
1.4877298 1.2664434 1.4244164 0.67062783 1.0782273 0.8815826 0.80629814 0.6715031
1.0567474 1.1417887 0.7319269 0.47192687

bias f4 [68]
00000000: d105 ac3d dcd0 c53c cabc 393e 9dea 1c3e
00000010: 0516 b1bd 6905 603d 034f b83d 4b74 463e
00000020: 82b1 d53d 8301 073d 28f0 433c bbb8 363e
00000030: cd92 c43c d3ce 6ebd f564 9d3e 4d66 8e3d
00000040: 0dec 143e 6fee b03e 733c 423e e3c8 88be
00000050: 834a 8fbc c1f9 8bbd eecf c63c fd17 3d3e
00000060: aa58 6cbe 184d 0e3e a6ca 59bd d3ff 963e
00000070: a2ef 883d d539 23bd ac6a 5e3d cdb4 0dbe
00000080: 587f 30bd c543 553d a5ae 6abc d0b8 1e3d
00000090: 44f1 0d3e 9bcd aabe 0f0d c63c 9dba 36bd
000000a0: 573c 0a3d 7a5d 4c3e 5bb3 4dbd 533d 093e
000000b0: e80e 8dbc 5436 47bd f9c6 5a3e ddd2 0fbe
000000c0: dff6 08be def1 c2bd 0a21 4fbe b824 50be
000000d0: 29e0 783d 4d6d 78bd 7021 973d 605a 64be
000000e0: 8529 913d c4e7 e73d a2b1 9f3e 67ae 9f3d
000000f0: a0f0 9fbd 8d90 f53d 8e0b 56bd af39 c23e
00000100: d664 5f3d 5e55 94be 8e44 423e 5c98 16be
0.08399547 0.024147443 0.18138424 0.15323873 -0.08646778 0.05469266 0.08999445 0.193803
0.104342476 0.032960426 0.011959113 0.17843907 0.023995781 -0.05830271 0.30741087 0.06953106
0.14543171 0.3455691 0.18968372 -0.26715764 -0.017491585 -0.06834746 0.02426907 0.18466182
-0.23080698 0.13896596 -0.053171776 0.29492053 0.06686331 -0.039850075 0.05430095 -0.13838501
-0.043090194 0.052066583 -0.014323865 0.03875047 0.13861567 -0.3335999 0.024176149 -0.044611562
0.03374895 0.19957533 -0.050219875 0.134023 -0.017219022 -0.048635796 0.21364965 -0.14045282
-0.13375424 -0.09518789 -0.20227447 -0.20326507 0.06076065 -0.060651112 0.073794246 -0.223001
0.07087997 0.11323503 0.3119021 0.077969365 -0.078095675 0.119904615 -0.052257113 0.37934634
0.054539524 -0.2897138 0.18971464 -0.14706558

running_mean f4 [68]
00000000: 5e01 d43d 26da be3d 8f00 a4bd b4f2 473b
00000010: 8fa3 85be 3ac5 9e3e 83b5 9ebd 43cd 233e
00000020: f75c e63c 3cf5 383e 7504 e83e 2034 bf3e
00000030: 8cfd 3d3e 5742 c6bc f886 92bd 8113 cdbe
00000040: 4156 7dbe c2f2 b239 4c8e 503e e4b3 bdbe
00000050: 365a f23e 7698 f8be e880 083e 57c4 9dbe
00000060: af56 f9bd a872 093e f70f 27bd 4e06 053e
00000070: 0963 bbbe d6f6 87bd 7932 a53e 53d8 a7bd
00000080: b900 573d 6ce4 b33e a7d4 85be 73cd b93d
00000090: 2cfc 483f 8921 6d3e 913c adbe debb 81be
000000a0: 747b a03d 3a6b d23c 70ba d83d 3d9c 20bf
000000b0: 14f5 7a3e 9193 aabe 854b ef3e c268 a2be
000000c0: 2349 74be e778 2dbe dfcb 8abe 5036 403d
000000d0: cbcc f3bd 8cd8 18bf acca 3cbe b52d d13e
000000e0: 9c15 a0bb 0e82 993d 62ea 82bd 121a 473e
000000f0: 4838 513e c4db 3ebe 7193 07bc f63f b73e
00000100: 065e fc3e f4c7 0b3e 99cf 843e 8f7d 1abf
0.10351823 0.09318952 -0.08007919 0.0030509653 -0.26101348 0.31009847 -0.07749464 0.1599627
0.028120501 0.180623 0.453159 0.37344456 0.18553752 -0.024201555 -0.071546495 -0.40053943
-0.24739935 0.00034131674 0.20366782 -0.37051308 0.4733445 -0.48553818 0.13330424 -0.30813858
-0.12174737 0.13422644 -0.04078671 0.12990686 -0.36598995 -0.06638877 0.3226507 -0.081955574
0.052490924 0.3513521 -0.26138803 0.090723895 0.78509784 0.23157324 -0.3383527 -0.25338644
0.07836047 0.025685895 0.10582435 -0.627384 0.24507552 -0.3331571 0.46737304 -0.3172055
-0.23856024 -0.16940652 -0.27108666 0.046926796 -0.119042955 -0.59705424 -0.18436688 0.40855184
-0.0048853885 0.07495509 -0.06392361 0.19443539 0.20431626 -0.18638521 -0.008274899 0.35790986
0.49290484 0.13650495 0.25939634 -0.6034784

running_var f4 [68]
00000000: bb50 283e 9c0a fc3d 9698 863e 5ae3 103e
00000010: 9f19 ab3e 5e6a c73e 77c5 213e fd52 1c3e
00000020: 9e5b 873e 97c8 5d3e 1f14 053e ebe3 653e
00000030: a08b 143e e37e ec3d d8b3 453e 8a37 9c3e
00000040: 7859 563e 71a5 9c3e f4e1 4b3e 89bf 0d3e
00000050: 6d4f 973e a628 923e 23b3 a53e e79b eb3d
00000060: 3994 703e db48 0b3e 99ba 803e afbd 083e
00000070: 7552 c63d d145 203e 5b90 863e a8a7 133e
00000080: 8e02 043e 4a1a f63d a13e 923d 2c2e 7e3e
00000090: bb2a 583e bb95 683e c031 9e3e 2680 563e
000000a0: b882 c93d 1ad2 7e3e 2a5c 8a3e 0a78 513e
000000b0: 2f4b 683e f2fb 233e 336b b03d 578f 313e
000000c0: cf87 2d3e 5da6 433e 4102 653e 8404 5b3e
000000d0: 386f 3e3e 7254 263e db7b c43e 2aac 633e
000000e0: 036e 383e 4f96 b73e c6cb df3e 70a6 443e
000000f0: 1f36 d33e 80a4 363e cfe2 3e3e 09a3 7f3e
00000100: 3a70 743e af6e e23d ed61 203e 8f77 203e
0.16437046 0.12306711 0.2628829 0.14149228 0.33417985 0.3894834 0.15797983 0.15266033
0.26437086 0.2165855 0.12995957 0.22450225 0.14506388 0.11547639 0.19306886 0.30511123
0.20932567 0.30594972 0.19910413 0.13842596 0.29552785 0.28546637 0.32363233 0.115043454
0.23494042 0.13602011 0.25142363 0.13353609 0.09683696 0.15651633 0.2628201 0.14419425
0.128916 0.12016733 0.07140852 0.248223 0.2111005 0.22713368 0.3089733 0.20947322
0.09839386 0.24884835 0.2702344 0.20455948 0.2268493 0.16014078 0.08614197 0.17339836
0.16946338 0.19106431 0.22364141 0.21388441 0.18597114 0.16243151 0.38375744 0.22233644
0.18010716 0.35856864 0.43710154 0.19204116 0.4125223 0.1783619 0.18641208 0.24964537
0.23870936 0.110562675 0.15662356 0.15670608

weight f4 [40, 80]
00000000: 519e aa3c 41c1 9bbd 7dd4 503d 1909 ad3d
00000010: 4ed8 ffbd be19 f9bd df22 45be f1b4 373d
00000020: 3ddc 3a3d 43c1 19be f09f b5bd 64e9 813d
00000030: 99bc 493c c53c 3cbc 2462 c9bd 2f1d ce3d
00000040: d36a 9abd f992 05be 325b c83c 53d4 0d3e
00000050: 3cd5 4ebc ba7b 053e f434 b7bc 750f bfbd
00000060: 6af7 85bd 9ff5 b3bc 2c6a 48be 5921 55bd
00000070: 872b ecbd 1ce1 f1bc 31db c8bd 131b 923c
00000080: 5455 3bbd d9b3 d0bc 03db cc3b 2ccb 2d3e
00000090: f2d9 d13c 8b18 cdba e401 88bd 6ccc 53bc
000000a0: b9a2 233c f855 2e3e e8a7 cc3d 938c 2c3e
000000b0: 6d6f 17be 9330 003e 3733 f23c f281 1dbe
000000c0: cbea fcbd e534 edbc 3d47 f5bc 255b 593e
000000d0: a977 f5bd e96c 0bbc 2e57 ffbd 5748 ed3d
000000e0: 383c 823e d833 843d 14d7 ce3d d514 803d
000000f0: 261e fe3d 47a6 7ebe 6a47 59bc 1e22 70bd
00000100: 991e e5bd 0de9 c23d 258e 7dbb 3f1e 103d
00000110: 68e4 b3bd 87d7 d53d cb4a a03d b55e db3d
00000120: 6f72 89bd 7ee6 4dbd 16f2 92bd 441a 90bd
00000130: 241b a4bd 3135 eb3d e186 4a3d 7b01 f53d
00000140: f6ad d93c b527 ddbd 8a32 873d f297 453c
00000150: 721e e73d 9667 3a3c 8089 843e d47d 4e3e
00000160: a716 03be 40ce fabb b320 b63d 854c cabd
00000170: e4a2 de3b 2753 be3d f721 af3d a3b1 293d
00000180: 12ad f53d 215e 453e cb23 ee3c 53b0 bd3d
00000190: dcca 00bc 8b3d 60be 18ea debd ad08 d4bd
000001a0: 0099 023e f3ba 863d fc29 533e 7752 e6bd
000001b0: 8b6e b43a b795 8c3d 0db6 8b3d 5266 0bbe
000001c0: e8b9 25be 5e6c 753d c76a 36bc 4ef9 f9bd
000001d0: a936 10bd fb40 7bbd 1164 a13d db2e d23d
000001e0: 489c 15bc 5a35 04be 879b 293d 95c6 07be
000001f0: dc46 2cbd d492 07bd 0ac9 9dbd 200c 783d
00000200: 4fb7 ba3d e374 5d3d eb56 24bc 58a1 1ebe
00000210: afaf 993d d8af 58bc 484b 073e 7135 d8bd
00000220: 0f27 bbbd 8c78 6e3d 0ff5 98bd 4f18 21bd
00000230: 3a64 8cbe af20 fe3d c541 0d3e ba83 bc3c
00000240: 17de 44bc 9b2a cebd 828e e73c 7595 3cbd
00000250: 7642 15bd a4c6 63bd 2772 98ba b8d2 a6bd
00000260: 5738 bf38 79b6 a23d c012 ca3c 32df c93d
00000270: 4f18 b4bd c9d7 abbd 8bfc 4d3c f15b 54bd
00000280: 048b a9bc 0edf 4d3d 39eb c43d 9ae9 fabb
00000290: 820a 763e a9f9 18bc 2758 fe3d 0032 e13d
000002a0: 3dfa 51be 67a6 c23d 2ba6 d03d 0cff a3bd
000002b0: 30fd 67b9 6d0a 463e 328a fb3d 8ccb 1cbc
000002c0: 444c 603d c651 403e b0e5 123e 3b26 a8bd
000002d0: c04b 84bd 52d4 74be 3931 17be 3141 54be
000002e0: 03a5 613e 1160 92bd ecd4 273e a20b da3c
000002f0: 3007 1c3e 4151 173e 3258 77bc ba54 f03d
00000300: ceac 81bd 7eb4 43bb 4cd7 d1bd 29bb 83bd
00000310: 99bc 14bd 64df c1bd 9663 203e db89 98bd
00000320: 5b5a eabd 6ba9 793c ba7f 493d 244c 19bd
00000330: e331 5d3b 21d3 28be 38cc 93bd e05f 8cbd
00000340: 219f d83d 0591 d6bd 40bb b83c 080d 43be
00000350: 72a5 873d f2a9 dabd f641 483d f54e e8bd
00000360: 8e5a 7fbe 5a2c fabc 42ca 49bd 7c99 933d
00000370: edbf 8ebe 29cd 113e 012f cf3d 0f21 d4bc
00000380: 47c6 d33d 2a51 6ebd 21d3 a8bb 281c 0a3c
00000390: a7f8 ed3b 3f67 c83c 6bfd 92bd 581b 753d
000003a0: b048 1dbd 87bb 153d 9e1a 93bd 3b31 0a3d
000003b0: 17b3 57bd 0bbd 24bd d4be dd3d 2f24 2b3d
000003c0: a230 67bd 1700 00be a590 19be 4f7e b13c
000003d0: 67ec d6bd 5dd1 20bd 060d 1abe eee1 7fbe
000003e0: d7f7 ba3d 64dc b0bd b97a a23d 0e61 2f3e
000003f0: 93e6 a43c 6b78 7fbd 17eb f3bd 59a7 793d
0.020827444 -0.0760522 0.050983895 0.08449001 -0.12492429 -0.12163113 -0.19251584 0.044850294
0.04562019 -0.1501513 -0.08868396 0.06343344 0.012313032 -0.011489098 -0.09833172 0.1006416
-0.07539906 -0.13044347 0.024457548 0.13850527 -0.012624081 0.13035479 -0.022364117 -0.0932912
-0.06541331 -0.021967707 -0.19571751 -0.052033756 -0.1153174 -0.029526286 -0.098074324 0.017835176
-0.045735672 -0.025476383 0.006251694 0.16972035 0.02561662 -0.0015647573 -0.066409856 -0.012927156
0.009987527 0.17024982 0.09992963 0.168505 -0.147886 0.1251853 0.029565437 -0.15381601
-0.12349471 -0.028955886 -0.029941196 0.21226175 -0.11985714 -0.008509853 -0.124678 0.11586063
0.25436568 0.06455201 0.10099617 0.062539734 0.12408094 -0.24868117 -0.013261655 -0.058626287
-0.11187477 0.09517107 -0.003868946 0.035185095 -0.087837994 0.10441499 0.078267656 0.10711423
-0.067112796 -0.050268643 -0.071750805 -0.0703626 -0.08012989 0.11484755 0.049445037 0.11963173
0.026572209 -0.10798589 0.066014364 0.012060152 0.11285104 0.011377236 0.25886154 0.20165187
-0.1280161 -0.0076539814 0.08892956 -0.09877876 0.0067943204 0.09293204 0.085514 0.041429173
0.11995901 0.19274189 0.029069802 0.09262147 -0.007860865 -0.21898477 -0.108844936 -0.10353217
0.12753677 0.065786265 0.20621485 -0.11246198 0.0013765855 0.06864493 0.06821833 -0.13613251
-0.16184199 0.0599178 -0.011133856 -0.12205754 -0.035208378 -0.061341267 0.07880414 0.10262843
-0.009131499 -0.12910977 0.041408088 -0.13259347 -0.042059764 -0.03309901 -0.07704361 0.06055844
0.091169946 0.05406655 -0.0100304885 -0.15491235 0.07504212 -0.013225518 0.13212311 -0.10557068
-0.09138309 0.05822043 -0.07468616 -0.039329823 -0.27420217 0.12408578 0.1379462 0.02301203
-0.012015841 -0.1006672 0.028266195 -0.04604097 -0.036440335 -0.05560936 -0.00116307 -0.0814566
9.118084e-05 0.0794496 0.024667144 0.09857024 -0.08793699 -0.08390767 0.012572418 -0.051845495
-0.02069617 0.05026155 0.09615178 -0.007657242 0.24027446 -0.009336867 0.124191575 0.10995865
-0.20505615 0.09504395 0.10187944 -0.08007631 -0.00022124196 0.19339915 0.12282218 -0.009570014
0.054760233 0.18781194 0.14345431 -0.08210417 -0.06459761 -0.23909119 -0.1476487 -0.20727994
0.22035603 -0.071472295 0.16389817 0.026616875 0.15237117 0.1477709 -0.015096711 0.1173491
-0.06331788 -0.002986222 -0.10246143 -0.06432182 -0.036312673 -0.094664365 0.15662989 -0.07448169
-0.11443015 0.015238146 0.049194075 -0.03742613 0.0033751659 -0.1648679 -0.07216686 -0.06854224
0.105772264 -0.10476879 0.022550225 -0.1904794 0.06623353 -0.10676946 0.04889103 -0.11343185
-0.24936888 -0.030538727 -0.049265154 0.07207009 -0.27880803 0.14238419 0.10116387 -0.02589467
0.10340553 -0.058182873 -0.0051521217 0.008429565 0.0072623077 0.024463294 -0.07177242 0.05984053
-0.0383994 0.036555793 -0.07182811 0.033738356 -0.052661028 -0.040219348 0.10827413 0.041782554
-0.056442864 -0.12500034 -0.14996584 0.021666674 -0.10494309 -0.039262164 -0.1504403 -0.24988529
0.09129303 -0.08635786 0.07933564 0.17126867 0.020129478 -0.0623707 -0.11910074 0.06095061
